
Loading mnist.
x_train shape: (60000, 28, 28, 1) 
x_test shape: (10000, 28, 28, 1)
_________________________________________________________________
Layer (type)                 Output Shape              Param #   
=================================================================
input_1 (InputLayer)         (None, 28, 28, 1)         0         
_________________________________________________________________
conv2d_1 (Conv2D)            (None, 26, 26, 32)        320       
_________________________________________________________________
conv2d_2 (Conv2D)            (None, 24, 24, 64)        18496     
_________________________________________________________________
max_pooling2d_1 (MaxPooling2 (None, 12, 12, 64)        0         
_________________________________________________________________
dropout_1 (Dropout)          (None, 12, 12, 64)        0         
_________________________________________________________________
flatten_1 (Flatten)          (None, 9216)              0         
_________________________________________________________________
dense_1 (Dense)              (None, 128)               1179776   
_________________________________________________________________
dropout_2 (Dropout)          (None, 128)               0         
_________________________________________________________________
dense_2 (Dense)              (None, 10)                1290      
=================================================================
Total params: 1,199,882
Trainable params: 1,199,882
Non-trainable params: 0
_________________________________________________________________

GaussianRandomProjector seed =  123

Computing random projections.
Input shape:  (60000, 28, 28, 1)
Output shape: (10, 60000, 8, 8, 1) -> 10 random projections of 60000 images whose shape is (8, 8, 1)
_________________________________________________________________
Layer (type)                 Output Shape              Param #   
=================================================================
input_2 (InputLayer)         (None, 8, 8, 1)           0         
_________________________________________________________________
conv2d_3 (Conv2D)            (None, 6, 6, 32)          320       
_________________________________________________________________
conv2d_4 (Conv2D)            (None, 4, 4, 64)          18496     
_________________________________________________________________
max_pooling2d_2 (MaxPooling2 (None, 2, 2, 64)          0         
_________________________________________________________________
dropout_3 (Dropout)          (None, 2, 2, 64)          0         
_________________________________________________________________
flatten_2 (Flatten)          (None, 256)               0         
_________________________________________________________________
dense_3 (Dense)              (None, 128)               32896     
_________________________________________________________________
dropout_4 (Dropout)          (None, 128)               0         
_________________________________________________________________
dense_4 (Dense)              (None, 10)                1290      
=================================================================
Total params: 53,002
Trainable params: 53,002
Non-trainable params: 0
_________________________________________________________________

Training infos:
batch_size =  128 
epochs = 12 
x_train.shape =  (60000, 8, 8, 1) 
y_train.shape =  (60000, 10) 

Epoch 1/12

469/468 [==============================] - 3s 6ms/step - loss: 0.8375 - acc: 0.7317
…
469/468 [==============================] - 5s 10ms/step - loss: 0.1505 - acc: 0.9530
Epoch 9/12

469/468 [==============================] - 4s 8ms/step - loss: 0.1509 - acc: 0.9526
Epoch 10/12

469/468 [==============================] - 3s 7ms/step - loss: 0.1520 - acc: 0.9525
Epoch 11/12

469/468 [==============================] - 3s 7ms/step - loss: 0.1492 - acc: 0.9523
Epoch 12/12

469/468 [==============================] - 4s 8ms/step - loss: 0.1502 - acc: 0.9524

Testing infos:
x_test.shape =  (10000, 28, 28, 1) 
y_test.shape =  (10000, 10) 


Computing random projections.
Input shape:  (10000, 28, 28, 1)
Output shape: (10, 10000, 8, 8, 1) -> 10 random projections of 10000 images whose shape is (8, 8, 1)

Original test data.
Correctly classified: 9416
Incorrectly classified: 584
Test accuracy: 94.16%
_________________________________________________________________
Layer (type)                 Output Shape              Param #   
=================================================================
input_3 (InputLayer)         (None, 8, 8, 1)           0         
_________________________________________________________________
conv2d_5 (Conv2D)            (None, 6, 6, 32)          320       
_________________________________________________________________
conv2d_6 (Conv2D)            (None, 4, 4, 64)          18496     
_________________________________________________________________
max_pooling2d_3 (MaxPooling2 (None, 2, 2, 64)          0         
_________________________________________________________________
dropout_5 (Dropout)          (None, 2, 2, 64)          0         
_________________________________________________________________
flatten_3 (Flatten)          (None, 256)               0         
_________________________________________________________________
dense_5 (Dense)              (None, 128)               32896     
_________________________________________________________________
dropout_6 (Dropout)          (None, 128)               0         
_________________________________________________________________
dense_6 (Dense)              (None, 10)                1290      
=================================================================
Total params: 53,002
Trainable params: 53,002
Non-trainable params: 0
_________________________________________________________________

Computing random projections.
Input shape:  (10000, 28, 28, 1)
Output shape: (10, 10000, 8, 8, 1) -> 10 random projections of 10000 images whose shape is (8, 8, 1)

Adversarial test data:
Correctly classified: 4213
Incorrectly classified: 5787
Adversarial accuracy: 42.13%
